…
I0216 03:37:24.013324 140001134929728 train.py:200] Finished training after 27729 steps and 80 epochs.
Model: "lstm_arch"
__________________________________________________________________________________________________
Layer (type)                    Output Shape         Param #     Connected to                     
==================================================================================================
input_1 (InputLayer)            [(None, 250, 6)]     0                                            
__________________________________________________________________________________________________
lstm (LSTM)                     (None, 250, 256)     269312      input_1[0][0]                    
__________________________________________________________________________________________________
lstm_1 (LSTM)                   (None, 250, 256)     525312      lstm[0][0]                       
__________________________________________________________________________________________________
dense (Dense)                   (None, 250, 1)       257         lstm_1[0][0]                     
__________________________________________________________________________________________________
flatten (Flatten)               (None, 250)          0           dense[0][0]                      
__________________________________________________________________________________________________
activation (Activation)         (None, 250)          0           flatten[0][0]                    
__________________________________________________________________________________________________
repeat_vector (RepeatVector)    (None, 256, 250)     0           activation[0][0]                 
__________________________________________________________________________________________________
permute (Permute)               (None, 250, 256)     0           repeat_vector[0][0]              
__________________________________________________________________________________________________
multiply (Multiply)             (None, 250, 256)     0           lstm_1[0][0]                     
                                                                 permute[0][0]                    
__________________________________________________________________________________________________
lambda (Lambda)                 (None, 256)          0           multiply[0][0]                   
__________________________________________________________________________________________________
dropout (Dropout)               (None, 256)          0           lambda[0][0]                     
__________________________________________________________________________________________________
dense_1 (Dense)                 (None, 256)          65792       dropout[0][0]                    
__________________________________________________________________________________________________
dense_2 (Dense)                 (None, 256)          65792       dense_1[0][0]                    
__________________________________________________________________________________________________
dense_3 (Dense)                 (None, 13)           3341        dense_2[0][0]                    
==================================================================================================
Total params: 929,806
Trainable params: 929,806
Non-trainable params: 0
__________________________________________________________________________________________________
