…
 [  0.   0.   0.   0.   2.   2.   1.   0.   1.   0.  19.   0.]
 [  0.   0.   0.   0.   0.   0.   0.   0.   0.   0.   0.  10.]]
I0216 02:33:44.348559 140334148646720 train.py:200] Finished training after 27729 steps and 80 epochs.
Model: "lstm_arch"
_________________________________________________________________
Layer (type)                 Output Shape              Param #   
=================================================================
input_1 (InputLayer)         [(None, 250, 6)]          0         
_________________________________________________________________
lstm (LSTM)                  (None, 250, 256)          269312    
_________________________________________________________________
lstm_1 (LSTM)                (None, 256)               525312    
_________________________________________________________________
dropout (Dropout)            (None, 256)               0         
_________________________________________________________________
dense (Dense)                (None, 256)               65792     
_________________________________________________________________
dense_1 (Dense)              (None, 256)               65792     
_________________________________________________________________
dense_2 (Dense)              (None, 13)                3341      
=================================================================
Total params: 929,549
Trainable params: 929,549
Non-trainable params: 0
_________________________________________________________________
