…
 [[… Test Loss: 12.368423461914062, Test Balanced Accuracy: 78.53773498535156, Test Accuracy: 93.49805450439453,
 Test Confusion Matrix: 
 [[… I0216 01:29:24.289045 139777130043200 train.py:200] Finished training after 27729 steps and 80 epochs.
Model: "lstm_arch"
_________________________________________________________________
Layer (type)                 Output Shape              Param #   
=================================================================
input_1 (InputLayer)         [(None, 250, 6)]          0         
_________________________________________________________________
lstm (LSTM)                  (None, 250, 256)          269312    
_________________________________________________________________
lstm_1 (LSTM)                (None, 250, 256)          525312    
_________________________________________________________________
dropout (Dropout)            (None, 250, 256)          0         
_________________________________________________________________
time_distributed (TimeDistri (None, 250, 256)          65792     
_________________________________________________________________
time_distributed_1 (TimeDist (None, 250, 256)          65792     
_________________________________________________________________
time_distributed_2 (TimeDist (None, 250, 13)           3341      
_________________________________________________________________
activation (Activation)      (None, 250, 13)           0         
=================================================================
Total params: 929,549
Trainable params: 929,549
Non-trainable params: 0
_________________________________________________________________
